models/complexity-prediction-model/best.pt (torch, 245048 bytes, 7 tensors)

word_embeddings.weight f4 [81, 128]
2.2128735 0.2378512 -0.22857675 -0.82802844 1.6466765 -0.24507987 1.5224038 -1.6921589
0.47990814 0.39553034 -1.0324967 -0.6334524 0.3786376 1.4133912 2.5810442 1.2150545
0.8806907 0.15405872 -1.0126926 -1.8672873 -0.02483602 0.63868004 -2.8537936 1.7281233
-1.7326194 -0.07768698 0.20298591 -0.83061904 -0.18845457 -1.2631024 0.57905567 -0.486992
0.37631267 -1.19761 -0.17076609 -1.0504327 0.11394716 -0.34097 0.5273295 -1.1443311
-0.909267 -0.23586552 -0.34075272 0.7539637 0.38759583 -0.6538887 -1.6276822 -0.5155209
0.96218884 0.6520084 -0.6952822 1.9821428 1.946474 -0.7195907 0.2112148 -1.5553795
0.6023855 0.7940145 -1.2583517 -0.641841 0.14001025 0.78183275 0.6467519 -0.2825999
1.1635733 1.2230684 1.1086448 2.2880304 -2.664581 1.1775256 -0.5583691 0.28631175
-0.45472908 -0.8525134 0.8667193 -0.065427035 0.95342404 0.32024914 -0.71616876 -1.6852778
0.15932651 -1.1158842 0.25024354 0.10319951 0.31628978 1.2941713 -0.34128323 -0.8862006
-0.2012636 -1.0857881 0.079860754 0.07297485 0.22296047 -1.5186354 0.11495681 0.7661501
-1.9488931 -0.73587674 -0.8713304 0.94822264 -1.7745585 0.024590721 0.8494588 0.034227252
1.018391 0.6801741 0.6448083 0.13801451 0.6826683 1.2044798 0.84275705 0.09852031
1.3125204 -0.4143356 2.231666 -2.202514 0.9915139 1.0828811 -0.6513642 1.3274009
0.6409284 0.49206287 -0.8908218 -0.36495426 0.64444125 0.9928691 1.1006713 0.38460144
0.0 0.0 0.0 0.0 0.0 0.0 0.0 0.0
0.0 0.0 0.0 0.0 0.0 0.0 0.0 0.0
0.0 0.0 0.0 0.0 0.0 0.0 0.0 0.0
0.0 0.0 0.0 0.0 0.0 0.0 0.0 0.0
0.0 0.0 0.0 0.0 0.0 0.0 0.0 0.0
0.0 0.0 0.0 0.0 0.0 0.0 0.0 0.0
0.0 0.0 0.0 0.0 0.0 0.0 0.0 0.0
0.0 0.0 0.0 0.0 0.0 0.0 0.0 0.0
0.0 0.0 0.0 0.0 0.0 0.0 0.0 0.0
0.0 0.0 0.0 0.0 0.0 0.0 0.0 0.0
0.0 0.0 0.0 0.0 0.0 0.0 0.0 0.0
0.0 0.0 0.0 0.0 0.0 0.0 0.0 0.0
0.0 0.0 0.0 0.0 0.0 0.0 0.0 0.0
0.0 0.0 0.0 0.0 0.0 0.0 0.0 0.0
0.0 0.0 0.0 0.0 0.0 0.0 0.0 0.0
0.0 0.0 0.0 0.0 0.0 0.0 0.0 0.0
00000000: b89f 0d40 448f 733e 0610 6abe acf9 53bf
00000010: 4cc6 d23f 38f6 7abe 21de c23f aa98 d8bf
00000020: 85b6 f53e f482 ca3e da28 84bf f029 22bf
00000030: cadc c13e 01ea b43f d42f 2540 e886 9b3f
00000040: f274 613f 92c1 1d3e e99f 81bf 4503 efbf
00000050: e974 cbbc 8980 233f 8ea4 36c0 2533 dd3f
00000060: 79c6 ddbf 5a1a 9fbd 8adb 4f3e 73a3 54bf
00000070: 3cfa 40be 57ad a1bf fe3c 143f 0457 f9be
00000080: 0eac c03e 494b 99bf 4edd 2ebe 9474 86bf
00000090: 215d e93d 9f93 aebe 11ff 063f 7179 92bf
000000a0: b9c5 68bf bb86 71be 2477 aebe c403 413f
000000b0: f672 c63e 4065 27bf e457 d0bf 2df9 03bf
000000c0: 0252 763f 06ea 263f 04fe 31bf dbb6 fd3f
000000d0: 0f26 f93f 1937 38bf b148 583e ad16 c7bf
000000e0: f035 1a3f 8944 4b3f ab11 a1bf b14f 24bf
000000f0: d95e 0f3e 3126 483f 8891 253f efb0 90be
00000100: f8ef 943f 818d 9c3f 13e8 8d3f 176f 1240
00000110: 7f88 2ac0 29b9 963f 47f1 0ebf 7497 923e
00000120: 40d2 e8be 513e 5abf 51e1 5d3f 9cfe 85bd
00000130: 9913 743f b2f7 a33e d656 37bf 2fb7 d7bf
00000140: 7d26 233e 4bd5 8ebf ec1f 803e 445a d33d
00000150: bcf0 a13e 68a7 a53f adbc aebe 0bde 62bf
00000160: 0c18 4ebe 1bfb 8abf 098e a33d d773 953d
00000170: c04f 643e a562 c2bf 7a6e eb3d 6a22 443f
00000180: 5475 f9bf 6b62 3cbf 820f 5fbf b8be 723f
00000190: bc24 e3bf 7b72 c93c 2276 593f e031 0c3d
000001a0: a35a 823f e41f 2e3f 2812 253f ad53 0d3e
000001b0: 5ac3 2e3f 652c 9a3f edbe 573f 04c5 c93d
000001c0: ab00 a83f cc23 d4be 9ed3 0e40 fdf5 0cc0
000001d0: dbd3 7d3f d99b 8a3f cebf 26bf 46e8 a93f
000001e0: e213 243f aaef fb3e e60c 64bf 49db babe
000001f0: 1afa 243f ab2c 7e3f cce2 8c3f 7bea c43e
00000200: 0000 0000 0000 0000 0000 0000 0000 0000
00000210: 0000 0000 0000 0000 0000 0000 0000 0000
00000220: 0000 0000 0000 0000 0000 0000 0000 0000
00000230: 0000 0000 0000 0000 0000 0000 0000 0000
00000240: 0000 0000 0000 0000 0000 0000 0000 0000
00000250: 0000 0000 0000 0000 0000 0000 0000 0000
00000260: 0000 0000 0000 0000 0000 0000 0000 0000
00000270: 0000 0000 0000 0000 0000 0000 0000 0000
00000280: 0000 0000 0000 0000 0000 0000 0000 0000
00000290: 0000 0000 0000 0000 0000 0000 0000 0000
000002a0: 0000 0000 0000 0000 0000 0000 0000 0000
000002b0: 0000 0000 0000 0000 0000 0000 0000 0000
000002c0: 0000 0000 0000 0000 0000 0000 0000 0000
000002d0: 0000 0000 0000 0000 0000 0000 0000 0000
000002e0: 0000 0000 0000 0000 0000 0000 0000 0000
000002f0: 0000 0000 0000 0000 0000 0000 0000 0000
00000300: 0000 0000 0000 0000 0000 0000 0000 0000
00000310: 0000 0000 0000 0000 0000 0000 0000 0000
00000320: 0000 0000 0000 0000 0000 0000 0000 0000
00000330: 0000 0000 0000 0000 0000 0000 0000 0000
00000340: 0000 0000 0000 0000 0000 0000 0000 0000
00000350: 0000 0000 0000 0000 0000 0000 0000 0000
00000360: 0000 0000 0000 0000 0000 0000 0000 0000
00000370: 0000 0000 0000 0000 0000 0000 0000 0000
00000380: 0000 0000 0000 0000 0000 0000 0000 0000
00000390: 0000 0000 0000 0000 0000 0000 0000 0000
000003a0: 0000 0000 0000 0000 0000 0000 0000 0000
000003b0: 0000 0000 0000 0000 0000 0000 0000 0000
000003c0: 0000 0000 0000 0000 0000 0000 0000 0000
000003d0: 0000 0000 0000 0000 0000 0000 0000 0000
000003e0: 0000 0000 0000 0000 0000 0000 0000 0000
000003f0: 0000 0000 0000 0000 0000 0000 0000 0000

lstm.weight_ih_l0 f4 [256, 128]
0.015199146 0.08900172 0.10137321 -0.106115334 0.0869873 -0.044111066 -0.04899648 -0.13056684
0.095264114 0.10403151 -0.07426236 -0.07520897 0.11503375 -0.0074970233 -0.07166384 0.12072896
0.054454602 0.22182213 0.019694274 0.0069384873 0.052144334 -0.061689764 0.033326827 -0.0026108134
0.09707941 -0.13837714 -0.095345266 -0.13125572 -0.014014533 -0.15465322 -0.01929229 0.018195387
0.20272265 -0.09275305 -0.071387604 0.05532401 -0.028042974 -0.11629093 0.089092776 -0.022070985
0.030201046 0.017383404 -0.14053757 0.030508274 -0.0009375611 0.11507137 0.0022964783 -0.15397082
0.048152495 -0.06263114 -0.079654045 0.15467316 0.045609303 -0.113264255 0.11360683 0.0526592
0.008938153 0.08755864 0.0082602585 -0.078359015 0.023723518 0.053527642 -0.0692968 -0.15362985
0.096941575 -0.09176983 0.110797636 0.047642346 -0.12813711 0.06583153 0.04783694 -0.0659681
0.1642511 -0.01918655 -0.055278182 0.026836991 0.0182886 0.11777223 0.13072428 -0.0031724032
-0.03463677 -0.1942001 -0.11460629 0.13375925 -0.08983326 0.029163089 0.06114212 -0.031475443
0.059686255 -0.15088731 -0.051787548 0.17302762 -0.1197209 -0.04742712 -0.103899546 -0.06503123
-0.061455157 -0.08464863 0.057425834 0.114790514 -0.111508265 -0.037106384 -0.02702536 -0.16706169
0.09692557 0.014587701 0.05348148 -0.036912106 -0.012165629 0.05449633 0.12671357 -0.19361871
-0.081431635 -0.031955644 0.09805532 -0.087840326 0.05487744 0.007348686 -0.12008278 -0.03625042
-0.076199986 0.12658066 0.045450825 -0.037562814 0.014890439 0.082712166 -0.046165887 0.028954744
0.11275168 -0.042760774 -0.1241602 -0.009792873 0.10552271 0.016873816 0.08301589 -0.06979194
-0.09694706 -0.0039271293 -0.13535492 -0.121636495 -0.049300272 0.004308252 0.020860983 -0.04346308
0.06425438 0.14317288 -0.04698592 0.07644147 0.15021625 0.11419482 0.04003815 -0.08357889
-0.05080221 0.1270588 0.17576772 -0.12917243 0.17151809 0.020600123 0.07521196 -0.13211216
0.1466777 -0.08905537 0.06597375 -0.020176897 0.031004556 0.029198887 -0.04544542 -0.14190084
0.07579166 -0.15123442 -0.039841637 0.078743264 0.0912063 -0.13213444 -0.12286754 0.029303873
0.11942076 -0.03274899 0.0084216315 0.040270068 -0.100835584 -0.017581595 0.0997573 -0.06872601
-0.07951031 -0.020095706 -0.12792575 -0.014949539 -0.09936026 0.010753977 -0.07780323 -0.036775514
0.0065721083 0.07510392 0.07418062 0.11456921 0.052703127 -0.08249042 0.023857677 -0.12500744
-0.050185896 -0.06280218 0.08758145 -0.023622608 0.12679946 0.10893462 -0.09780328 -0.032814827
-0.050036766 0.024047809 -0.05870493 0.017118063 0.14298663 -0.016259236 0.026870972 0.013497226
0.10434156 -0.07381608 0.07551334 -0.009983233 0.07870059 0.024938665 -0.040732536 0.046050776
-0.0070211953 -0.07045729 -0.07673699 0.09183422 0.07854424 0.012265644 -0.066652544 0.16658844
-0.07477796 -0.053454176 0.024260867 -0.002693326 -0.06600432 0.002212407 -0.06048372 -0.037697833
0.12671426 -0.091456816 0.0929298 -0.051460706 0.030444145 0.068228975 0.073708974 -0.08642618
0.001563539 -0.06279303 0.02840162 -0.07018846 -0.026696356 -0.047020983 0.119209036 0.09211825
00000000: d705 793c 8946 b63d c29c cf3d ff52 d9bd
00000010: 6626 b23d cead 34bd 88b0 48bd 50b3 05be
00000020: d519 c33d 790e d53d dd16 98bd 2907 9abd
00000030: d196 eb3d 97a9 f5bb 7ec4 92bd bf40 f73d
00000040: ca0b 5f3d 5725 633e e355 a13c 405c e33b
00000050: 4c95 553d 68ae 7cbd b681 083d 2e1a 2bbb
00000060: 92d1 c63d bdb2 0dbe 6144 c3bd e667 06be
00000070: 369d 65bc 6a5d 1ebe dd0a 9ebc 7e0e 953c
00000080: 8796 4f3e 50f5 bdbd aa33 92bd 6e9b 623d
00000090: 61ba e5bc f029 eebd 4676 b63d 36ce b4bc
000000a0: 2f68 f73c a467 8e3c 15e9 0fbe 7dec f93c
000000b0: a9c6 75ba 8aaa eb3d 8380 163b 87aa 1dbe
000000c0: 8d3b 453d c144 80bd a921 a3bd a462 1e3e
000000d0: d2d0 3a3d 17f7 e7bd b3aa e83d 2cb1 573d
000000e0: 5571 123c f251 b33d 0956 073c b17a a0bd
000000f0: d357 c23c cd3f 5b3d 7beb 8dbd 2551 1dbe
00000100: 4e89 c63d d2f1 bbbd dfe9 e23d 9f24 433d
00000110: 6036 03be aed2 863d abf0 433d 491a 87bd
00000120: 7131 283e 1d2d 9dbc 606b 62bd 40d9 db3c
00000130: f9d1 953c 9132 f13d 96dc 053e 18e8 4fbb
00000140: 49df 0dbd 64dc 46be b4b6 eabd 2ff8 083e
00000150: 80fa b7bd 6ee7 ee3c 2970 7a3d 65ec 00bd
00000160: 9379 743d 3482 1abe 2e1f 54bd 272e 313e
00000170: 3b30 f5bd f142 42bd 49c9 d4bd 182f 85bd
00000180: 67b8 7bbd 435c adbd 5a37 6b3d 4a17 eb3d
00000190: 725e e4bd ddfc 17bd 4a64 ddbc 3812 2bbe
000001a0: ea80 c63d 4101 6f3c 650f 5b3d 2631 17bd
000001b0: 5952 47bc 8b37 5f3d 34c1 013e fc43 46be
000001c0: a1c5 a6bd ece3 02bd 3ad1 c83d a1e5 b3bd
000001d0: 2bc7 603d 3fcd f03b f6ed f5bd 527b 14bd
000001e0: bd0e 9cbd 5c9e 013e a52a 3a3d 77db 19bd
000001f0: 07f7 733c ff64 a93d 7118 3dbd 8032 ed3c
00000200: 5aea e63d ec25 2fbd b447 febd 4972 20bc
00000210: 4a1c d83d f53a 8a3c 3c04 aa3d 14ef 8ebd
00000220: 2e8c c6bd 26af 80bb 7b9a 0abe 8e1c f9bd
00000230: 15ef 49bd 3d2c 8d3b a7e4 aa3c 5806 32bd
00000240: cd97 833d e99b 123e 4f74 40bd 588d 9c3d
00000250: 4ad2 193e f9de e93d 0bff 233d 692b abbd
00000260: fa15 50bd b41b 023e 74fc 333e c745 04be
00000270: 70a2 2f3e 97c1 a83c ba08 9a3d 6948 07be
00000280: ae32 163e a962 b6bd 3f1d 873d 054a a5bc
00000290: 44fd fd3c 8132 ef3c fa24 3abd 744e 11be
000002a0: a838 9b3d 32dd 1abe fc30 23bd 2644 a13d
000002b0: 5eca ba3d 404e 07be faa1 fbbd ad0e f03c
000002c0: df92 f43d ce23 06bd e2fa 093c 3af2 243d
000002d0: e382 cebd 4707 90bc 8e4d cc3d 39c0 8cbd
000002e0: 4dd6 a2bd c09f a4bc f8fe 02be e9ee 74bc
000002f0: 647d cbbd 7331 303c 4d57 9fbd eca1 16bd
00000300: d75a d73b 16d0 993d 02ec 973d 43a3 ea3d
00000310: 3cdf 573d bdf0 a8bd 2d71 c33c f301 00be
00000320: ba8f 4dbd 6e9e 80bd e75d b33d 3384 c1bc
00000330: b8d7 013e 1d19 df3d 164d c8bd d768 06bd
00000340: 5af3 4cbd e9ff c43c 9574 70bd 2e3b 8c3c
00000350: 166b 123e 1732 85bc 8320 dc3c 7823 5d3c
00000360: 07b1 d53d e32c 97bd bda6 9a3d b790 23bc
00000370: c62d a13d 2c4c cc3c 29d7 26bd bd9f 3c3d
00000380: 0e12 e6bb e94b 90bd 4828 9dbd 9413 bc3d
00000390: cddb a03d d7f5 483c 2181 88bd 2996 2a3e
000003a0: 3025 99bd c4f2 5abd babe c63c 8382 30bb
000003b0: 462d 87bd 08fe 103b c7bd 77bd 0b69 1abd
000003c0: 62c1 013e b64d bbbd fb51 be3d 76c8 52bd
000003d0: 0066 f93c a2bb 8b3d bbf4 963d 3600 b1bd
000003e0: aaef cc3a a299 80bd 84aa e83c f8be 8fbd
000003f0: 51b2 dabc 1399 40bd de23 f43d 7ea8 bc3d

lstm.weight_hh_l0 f4 [256, 64]
-0.06865643 -0.04224605 0.042622287 -0.097394094 0.02878403 0.059696842 0.14125581 -0.051064637
0.06258201 -0.098584935 0.06936714 0.14654201 -0.09388963 -0.0027740507 -0.07922741 0.025992526
-0.08323301 0.02616776 0.0024150966 0.13380276 -0.13039461 -0.0058687828 -0.11456408 0.10624675
-0.044256125 0.057739276 0.06063809 -0.16273743 0.1355594 0.04393622 0.044382587 -0.17120339
-0.08898767 -0.017608527 -0.06555233 -0.2051473 -0.03787377 0.031993873 -0.22566806 0.10611037
-0.04058603 -0.16708182 0.112210944 0.09468908 -0.115593486 -0.077176474 -0.108415775 0.18001828
0.1731468 -0.050363038 0.009222256 0.06318945 0.1409503 0.14535218 0.16708484 0.038986206
-0.100972556 -0.15851164 0.09660218 -0.030079694 0.00019465611 0.071271926 0.014395759 -0.15828809
0.0076806345 -0.06624116 0.016737305 -0.023207266 0.05062071 -0.10166601 0.073087424 -0.14630915
0.0023859811 -0.07970787 -0.019785684 0.0417957 -0.03188669 0.023990149 0.073542535 0.1313704
-0.104259245 0.0726219 -0.075743236 0.08597326 -0.03512405 -0.030513449 0.03201522 -0.09025413
-0.08854647 0.02709694 -0.040224187 -0.054614823 -0.0806719 -0.06495964 -0.16099851 0.022418512
-0.01727735 -0.04521244 0.013650443 0.0069264574 -0.007068273 0.0702886 -0.056450732 -0.024283612
0.038116492 -0.097715415 0.051096514 -0.10318617 0.06922008 0.08108854 -0.07007441 -0.04529623
0.085798346 -0.08177746 -0.083699815 -0.026404133 0.1483276 -0.09243752 -0.027930472 -0.012920303
-0.10725544 -0.059702408 -0.120380744 0.07475235 -0.038028304 0.015563947 -0.066875726 -0.11982674
-0.06757068 0.014901388 0.06874076 -0.2539785 0.17924394 0.09251011 0.075177036 -0.21654563
-0.043381084 -0.25843406 0.03628833 0.23988257 -0.27190617 0.063279904 0.03778489 0.061332215
0.10433994 0.06447695 -0.08170045 -0.024528213 -0.14874113 0.077285886 0.0625757 0.06649625
0.15771875 -0.06478683 0.15775095 0.041994892 0.117722645 0.08837255 -0.075636834 0.05190591
-0.12999463 0.032375973 0.04616529 -0.06758959 0.038894843 -0.17043678 -0.19887759 0.10438146
0.14724329 -0.076693155 -0.008242132 -0.03247223 -0.080515005 -0.08700506 0.056746297 0.10356643
0.16665158 -0.034014665 0.10156251 -0.0019628778 0.19945264 0.0932618 0.1428102 0.11461573
0.120737754 -0.15042107 0.120101355 -0.014216543 0.031927515 -0.121715255 0.05769112 -0.11401716
-0.014149758 -0.12329028 0.013588962 -0.086029954 0.022455392 0.074664876 -0.09476069 -0.12407997
0.031810474 -0.08983067 -0.12529573 0.24551868 -0.1853567 -0.013242702 -0.07227985 0.10941005
0.05788419 0.068501145 -0.13455206 0.03082219 0.088254474 0.048621938 -0.113551594 0.06579787
0.076181255 0.16545275 0.12064478 -0.03173285 0.10876408 -0.020531755 -0.03596543 -0.116445616
0.022288825 0.05310787 -0.0082403505 -0.030429529 0.01593275 -0.24717695 0.045092296 0.12514894
0.08540458 -0.06697217 0.100438856 0.056674037 -0.018552814 0.010749622 0.0612666 0.039734945
-0.06654943 0.103904925 0.062620506 0.16391194 0.14009964 0.037413016 0.11122701 0.013071729
0.1022602 0.003011866 0.12461544 -0.06264711 0.07078359 0.032683402 0.11130048 -0.016991619
00000000: be9b 8cbd 320a 2dbd b594 2e3d 8e76 c7bd
00000010: 7ccc eb3c ad84 743d 5da5 103e 2729 51bd
00000020: ff2a 803d e6e6 c9bd 5c10 8e3d 1c0f 163e
00000030: 3549 c0bd d9cc 35bb fb41 a2bd 47ee d43c
00000040: 1176 aabd c55d d63c 9946 1e3b 9703 093e
00000050: 2a86 05be eb4e c0bb 93a0 eabd e597 d93d
00000060: e945 35bd 0580 6c3d a55f 783d a4a4 26be
00000070: 15d0 0a3e 77f6 333d 84ca 353d f14f 2fbe
00000080: 2b3f b6bd c23f 90bc 4d40 86bd 2212 52be
00000090: 8721 1bbd 020c 033d 8715 67be 6550 d93d
000000a0: 893d 26bd 7f17 2bbe dace e53d 59ec c13d
000000b0: 47bc ecbd b30e 9ebd 1709 debd b656 383e
000000c0: 654d 313e 7949 4ebd f218 173c 7869 813d
000000d0: 4755 103e 34d7 143e 4a18 2b3e 00b0 1f3d
000000e0: b3ca cebd e050 22be 5dd7 c53d b169 f6bc
000000f0: 9a1c 4c39 04f7 913d 31dc 6b3c 4616 22be
00000100: d5ad fb3b 72a9 87bd ac1c 893c 2a1d bebc
00000110: a957 4f3d 4536 d0bd dcae 953d 11d2 15be
00000120: 1f5e 1c3b e13d a3bd 9615 a2bc f831 2b3d
00000130: 9e9b 02bd fd86 c43c 789d 963d f685 063e
00000140: df85 d5bd caba 943d 451f 9bbd c012 b03d
00000150: 3cde 0fbd 57f7 f9bc 6422 033d 28d7 b8bd
00000160: da57 b5bd 67fa dd3c 1ec2 24bd cbb3 5fbd
00000170: 4f37 a5bd 8f09 85bd cbdc 24be 07a7 b73c
00000180: 3b89 8dbc ae30 39bd 1ca6 5f3c 56f7 e23b
00000190: f99c e7bb 78f3 8f3d e238 67bd 6dee c6bc
000001a0: 0a20 1c3d 051f c8bd 944a 513d 4553 d3bd
000001b0: 42c3 8d3d c011 a63d 2c83 8fbd 8a88 39bd
000001c0: 0bb7 af3d f17a a7bd cf6a abbd 7b4d d8bc
000001d0: 31e3 173e e24f bdbd 72ce e4bc aeaf 53bc
000001e0: bda8 dbbd 838a 74bd 2e8a f6bd c317 993d
000001f0: 91c3 1bbd edff 7e3c 24f6 88bd b967 f5bd
00000200: 7f62 8abd f424 743c f5c7 8c3d 7809 82be
00000210: b98b 373e f175 bd3d 6bf6 993d 23be 5dbe
00000220: 5db0 31bd 7851 84be 12a3 143d c7a3 753e
00000230: 4937 8bbe e598 813d 54c4 1a3d 7d37 7b3d
00000240: 2eb0 d53d 7e0c 843d 9152 a7bd 64ef c8bc
00000250: 984f 18be 1048 9e3d b027 803d 302f 883d
00000260: 0681 213e f5ae 84bd 7789 213e d602 2c3d
00000270: 9218 f13d abfc b43d 7ce7 9abd 4b9b 543d
00000280: 501d 05be ab9c 043d d117 3d3d 696c 8abd
00000290: 3350 1f3d fb86 2ebe 91a6 4bbe f2c5 d53d
000002a0: f2c6 163e 4d11 9dbd 020a 07bc 9a01 05bd
000002b0: 0de5 a4bd b52f b2bd ce6e 683d a31a d43d
000002c0: b6a6 2a3e f652 0bbd 0100 d03d a0a3 00bb
000002d0: 503d 4c3e 0b00 bf3d d63c 123e a7bb ea3d
000002e0: 5b45 f73d fb07 1abe b3f7 f53d 81ec 68bc
000002f0: 6dc6 023d d945 f9bd 864d 6c3d d481 e9bd
00000300: 63d4 67bc 9d7f fcbd 3da4 5e3c 7930 b0bd
00000310: 5ff4 b73c e6e9 983d e511 c2bd a41d febd
00000320: b34b 023d 24f9 b7bd 864d 00be 4069 7b3e
00000330: 26ce 3dbe ebf7 58bc 7507 94bd 6012 e03d
00000340: f917 6d3d 544a 8c3d 04c8 09be d17e fc3c
00000350: c3be b43d cc27 473d bd8d e8bd 09c1 863d
00000360: eb04 9c3d 726c 293e 9c14 f73d 4efa 01bd
00000370: b4bf de3d 3632 a8bc 7d50 13bd 0a7b eebd
00000380: 0e97 b63c a387 593d 8902 07bc 5947 f9bc
00000390: 6685 823c f41b 7dbe b3b2 383d 0b27 003e
000003a0: 99e8 ae3d b428 89bd e3b2 cd3d 0923 683d
000003b0: 12fc 97bc 2f1f 303c b0f2 7a3d 1cc1 223d
000003c0: 114b 88bd 1bcc d43d 2e3f 803d 88d8 273e
000003d0: 4876 0f3e 643e 193d fdca e33d ce2a 563c
000003e0: cc6d d13d ba62 453b 6136 ff3d 214d 80bd
000003f0: fdf6 903d 08df 053d 82f1 e33d 0232 8bbc

lstm.bias_ih_l0 f4 [256]
0.0059371935 -0.075703554 0.21788692 -0.0429926 0.001023443 -0.07925305 0.094511524 0.008360969
-0.07089764 0.16775729 0.068408065 0.16048685 0.057372812 0.010416217 -0.0122325905 0.057772405
0.08316754 -0.010523089 -0.023991486 0.1486221 0.08812912 0.2013756 -0.021259703 -0.04492584
-0.051069226 0.022153841 0.18171683 0.060280353 0.10627458 -0.02225275 0.19389038 -0.019310292
-0.002991985 0.08641371 -0.10930742 0.15727122 -0.052805956 0.16834505 0.08213713 -0.05934075
0.06311851 -0.032299124 -0.02616046 -0.0020780165 -0.072851636 0.0016983954 0.13087912 0.033052538
0.02757248 0.19994979 0.1453095 0.090961866 0.051069926 -0.100383155 0.19087975 0.1686113
0.009755078 0.07504756 -0.106719784 0.06427159 0.0853547 0.17041318 0.10560063 0.06119286
0.020444738 0.06884237 0.12838693 0.107252724 0.011139739 -0.0499777 0.020844823 0.18233095
0.09544286 0.17607626 0.100083984 -0.04184554 0.0076149846 -0.10345817 -0.05006375 0.15332511
0.123010814 0.10835371 -0.04215572 0.06399303 0.088410206 0.15283594 0.016476298 -0.11884689
-0.094584145 0.006560431 0.13374546 0.029461851 -0.04541529 -0.00920028 0.012736235 -0.09050966
0.13037468 -0.0486796 -0.0012824906 0.0974536 -0.034865733 -0.015428941 -0.018505882 0.036712576
0.08570756 0.112726994 0.11947678 0.17062272 -0.0010258564 0.032220766 0.13134187 -0.007940845
0.10905695 0.12633036 0.037327264 0.12804109 -0.028803362 -0.07267956 -0.039393045 -0.0650364
0.12109625 0.06838829 0.0072747995 0.13342188 -0.103223816 -0.08607706 0.15987486 0.11138824
-0.012374559 -0.06407239 -0.0007475437 -0.06586214 0.1270802 0.05657974 0.07208302 0.047701653
0.04178345 -0.010251658 0.094298676 -0.031052401 -0.14297134 -0.114864126 0.009592901 0.110941336
-0.094836086 -0.06349694 -0.07706042 0.07101675 -0.10653216 0.00647981 0.088045456 0.06971385
-0.034260098 0.09547977 0.113298066 -0.03341269 0.035435557 -0.11490941 0.07682183 0.08901341
-0.04708268 -0.010790607 -0.035936493 -0.020453358 0.0008367006 -0.12333098 -0.08166292 0.09370023
-0.01792905 0.10878111 0.075998135 -0.15369852 -0.12971222 0.0964162 -0.03245053 0.14544822
0.08248975 0.070527226 0.008713556 0.045800295 0.077826284 0.022788776 0.11946505 -0.104490414
0.058235504 0.046520725 -0.016463552 -0.021478703 0.104416445 0.10727791 0.12151087 -0.120163806
0.045067098 -0.020890312 0.13028759 0.032153256 0.21033463 0.0362733 0.10347828 0.08406832
0.009585116 0.054798268 -0.09625487 0.1131651 0.21578507 0.006721584 0.109064594 0.13540836
0.018554185 -0.044166148 -0.03819071 0.16168225 0.15518674 0.14413856 -0.009518284 -0.02939993
0.054672673 -0.020175373 0.048413843 0.12510352 0.13473089 0.07295723 0.046349127 -0.013559149
-0.03988082 -0.015794845 0.07161263 0.07096463 0.11110813 0.020506654 0.063155085 0.11665411
0.08050022 0.13657492 0.037685107 0.024214411 0.14195496 0.17466408 0.16104648 0.013424324
-0.027548859 0.04773667 0.0653313 0.0585743 0.23901822 -0.07214746 0.09453638 -0.08484119
0.20902854 0.039872088 -0.07797436 -0.09298783 0.045486394 0.04602245 0.02711124 0.09526692
00000000: ca8c c23b 770a 9bbd c01d 5f3e 0219 30bd
00000010: 0c25 863a 6c4f a2bd 428f c13d 72fc 083c
00000020: c832 91bd 91c8 2b3e 8719 8c3d aa56 243e
00000030: c1ff 6a3d c8a8 2a3c 346b 48bc c2a2 6c3d
00000040: be53 aa3d 0969 2cbc cb89 c4bc 6430 183e
00000050: 0a7d b43d 6835 4e3e d428 aebc 2804 38bd
00000060: f72d 51bd f97b b53c fa13 3a3e 88e8 763d
00000070: 7da6 d93d 664b b6bc 338b 463e 9e30 9ebc
00000080: 2e15 44bb acf9 b03d 92dc dfbd b50b 213e
00000090: 0f4b 58bd a562 2c3e 8337 a83d 490f 73bd
000000a0: 4744 813d 164c 04bd 764e d6bc 552f 08bb
000000b0: 3d33 95bd b19c de3a 2d05 063e 1962 073d
000000c0: aedf e13c a3bf 4c3e 03cc 143e 374a ba3d
000000d0: b32e 513d af95 cdbd fb75 433e 71a8 2c3e
000000e0: c3d3 1f3c 89b2 993d e78f dabd d3a0 833d
000000f0: 72ce ae3d cb80 2e3e 2545 d83d 5da5 7a3d
00000100: b97b a73c 3afd 8c3d dd77 033e 51a7 db3d
00000110: 7483 363c 6bb5 4cbd c3c2 aa3c f7b4 3a3e
00000120: 8c77 c33d 564d 343e d5f8 cc3d 3b66 2bbd
00000130: 1f87 f93b e1e1 d3bd a60f 4dbd 4201 1d3e
00000140: 18ed fb3d 8de8 dd3d 7aab 2cbd c70e 833d
00000150: 6910 b53d 0681 1c3e 4df9 863c 0066 f3bd
00000160: 55b5 c1bd e2f8 d63b 92f4 083e fb59 f13c
00000170: 6205 3abd c5bc 16bc a4ab 503c 215d b9bd
00000180: f180 053e 4364 47bd 3e19 a8ba c195 c73d
00000190: 5fcf 0ebd abc9 7cbc a699 97bc ed5f 163d
000001a0: 7287 af3d 69dd e63d 3eb0 f43d b9b7 2e3e
000001b0: 0776 86ba ecf9 033d 7c7e 063e 511a 02bc
000001c0: 4059 df3d bf5c 013e 79e4 183d 341d 033e
000001d0: 07f5 ebbc 05d9 94bd 9a5a 21bd ce31 85bd
000001e0: 5001 f83d 290f 8c3d 7161 ee3b bf9f 083e
000001f0: 0267 d3bd 2b49 b0bd 3cb6 233e 841f e43d
00000200: aabe 4abc 6338 83bd cff6 43ba bbe2 86bd
00000210: 5021 023e 28c0 673d 43a0 933d cf62 433d
00000220: 1f25 2b3d 92f6 27bc aa1f c13d 9b61 febc
00000230: 1467 12be e23d ebbd 8b2b 1d3c 3635 e33d
00000240: 6c39 c2bd af0a 82bd dad1 9dbd 3b71 913d
00000250: 882d dabd 9654 d43b 2d51 b43d 23c6 8e3d
00000260: 5154 0cbd e68a c33d d108 e83d bfdb 08bd
00000270: e024 113d a055 ebbd c354 9d3d aa4c b63d
00000280: c5d9 40bd 16cb 30bc 2532 13bd cd8d a7bc
00000290: 0756 5b3a f494 fcbd e43e a7bd e8e5 bf3d
000002a0: f1df 92bc a1c8 de3d e9a4 9b3d 2563 1dbe
000002b0: 48d3 04be db75 c53d d9ea 04bd 61f0 143e
000002c0: 63f0 a83d 9470 903d 4ec3 0e3c 1799 3b3d
000002d0: 6363 9f3d 87af ba3c 18aa f43d 12ff d5bd
000002e0: 5a88 6e3d 848c 3e3d 92de 86bc 1bf4 afbc
000002f0: 4ad8 d53d 85b4 db3d b1da f83d 7118 f6bd
00000300: 4798 383d 2922 abbc 1c6a 053e 22b3 033d
00000310: f661 573e 5093 143d 6cec d33d 032c ac3d
00000320: e40a 1d3c 2674 603d 4621 c5bd 1bc3 e73d
00000330: c3f6 5c3e bc40 dc3b 425d df3d 7da8 0a3e
00000340: f2fe 973c 90e7 34bd dd6d 1cbd 0890 253e
00000350: 46e9 1e3e 0f99 133e 94f2 1bbc 1fd8 f0bc
00000360: 74f0 5f3d d346 a5bc 984d 463d 231b 003e
00000370: e5f6 093e 9a6a 953d 95d8 3d3d 3127 5ebc
00000380: 125a 23bd 3164 81bc a4a9 923d e755 913d
00000390: a98c e33d 92fd a73c 7457 813d 5ae8 ee3d
000003a0: 4ddd a43d 4cda 0b3e b35b 1a3d 4d5d c63c
000003b0: a45c 113e 24db 323e 5ee9 243e b2f1 5b3c
000003c0: 25ae e1bc 8787 433d 6bcc 853d 9beb 6f3d
000003d0: 31c1 743e 0cc2 93bd 4a9c c13d 38c1 adbd
000003e0: 940b 563e ea50 233d 05b1 9fbd 6770 bebd
000003f0: f14f 3a3d 0982 3c3d 6418 de3c 4e1b c33d

lstm.bias_hh_l0 f4 [256]
0.0045069274 -0.015827041 0.19238721 0.14379585 0.20827253 -0.0589169 0.042058412 -0.022821704
-0.062727764 0.2101311 0.21994875 0.18090038 0.016493035 0.015185965 0.17999233 0.2282844
0.107451595 0.112983376 0.03099004 0.17808187 0.06765452 0.059985675 0.12319814 -0.09951731
-0.05044645 0.014440367 0.114405 0.09537257 -0.061611798 0.16355008 0.19179097 0.10236229
0.11334335 0.21233384 -0.012057051 0.15726385 0.09139571 0.25036362 0.08179019 0.11364913
0.07058401 0.1260741 0.032429267 -0.009086936 -0.014315431 0.039393444 0.021836849 0.1528042
0.113313004 0.12351936 0.159694 -0.010093769 0.16407323 0.021968402 0.10747827 0.14054863
0.14516285 0.087323524 0.031164892 -0.007821547 0.10182208 0.120513 0.24689732 0.107346706
0.010950004 -0.05753216 -0.09457777 -0.047954857 0.18683244 -0.028343359 0.08949836 0.100900725
0.0807872 0.109843805 0.041157726 0.101489834 0.040048223 0.023775995 -0.021187041 0.022731276
-0.046339087 -0.048138537 0.013849461 0.13850006 0.013564637 0.105741136 0.028297713 -0.098626085
0.086005025 0.077357285 0.14062555 0.060877606 0.1279173 0.046850473 0.18808421 -0.044676155
0.039027285 -0.060711756 0.081013694 0.124639995 0.039387852 0.14477082 0.027893148 -0.06168504
0.03810992 0.0852106 -0.009405844 0.16395517 0.072591536 0.03262522 0.055420604 -0.046656013
0.10296973 0.0056115324 0.13411349 -0.057511587 0.09061377 0.05994753 -0.062295146 -0.06941636
0.0851728 0.037899572 0.002141918 -0.03310634 0.07732343 0.1515829 0.024044022 -0.030316176
-0.06590563 0.026798423 -0.01249708 0.035882037 -0.01846294 0.0016085003 -0.026915165 0.094250746
0.07964103 -0.11246524 0.06067608 0.1816586 -0.0631299 -0.07517395 0.010722415 0.02301114
-0.07275802 -0.028088488 -0.028792648 0.043479193 -0.037464928 0.1416451 -0.0070858756 -0.002030616
0.050936453 0.07904883 0.0935122 -0.03225502 -0.005755459 -0.04609076 -0.110919796 -0.15200503
0.05941503 0.12087548 -0.08901541 0.035802275 -0.11430613 -0.17144871 0.0030101393 0.15073116
-0.0437773 0.045517456 0.061036143 0.073073626 0.058536436 -0.112572685 -0.034226462 0.11577663
0.014884071 0.057026282 -0.06313887 -0.074596405 0.14951521 -0.03871763 -0.07440083 0.12525949
0.059736937 0.021637548 0.005356474 0.026537726 0.14976509 0.042638376 -0.042209975 -0.16141757
0.12827505 0.00023682356 0.036133595 0.12841074 0.08472701 -0.010884704 -0.00049626554 0.066040255
0.15509742 0.18053368 -0.09685718 0.13576691 0.024211511 0.0844381 0.021687703 0.0401546
0.011092811 0.13627629 -0.036670376 0.1655255 -0.0238261 0.07118985 0.08534805 0.028440077
-0.08808561 -0.045783706 -0.042841174 0.04695428 0.09454715 0.17681989 0.048868194 -0.0040307203
0.034787677 -0.02287424 -0.05137617 -0.06897087 -0.0673977 0.10881616 0.031202106 0.1534084
0.18366852 -0.049453557 -0.018266369 0.027364524 0.08845752 0.14821893 0.13223368 0.09009616
0.050443515 0.18898301 0.029764494 -0.036006477 0.08337403 0.11140692 -0.016289815 -0.06511983
0.022440769 -0.02389772 0.027166031 -0.00406334 -0.07561035 0.2710252 0.11148046 0.08170676
00000000: d9ae 933b b6a7 81bc 2701 453e 383f 133e
00000010: 6545 553e d952 71bd 7145 2c3d 95f4 babc
00000020: 6a77 80bd 9b2c 573e 3f3a 613e f33d 393e
00000030: 671c 873c 8ece 783c e94f 383e 63c3 693e
00000040: 950f dc3d d463 e73d d3de fd3c 185b 363e
00000050: 748e 8a3d 8ab3 753d 4e4f fc3d bbcf cbbd
00000060: f0a0 4ebd 4a97 6c3c 2b4d ea3d b252 c33d
00000070: a75c 7cbd ac79 273e da64 443e 52a3 d13d
00000080: 8f20 e83d 0b6e 593e f08a 45bc c609 213e
00000090: ad2d bb3d a92f 803e 9d81 a73d e0c0 e83d
000000a0: 598e 903d 9219 013e 8dd4 043d 5fe1 14bc
000000b0: 458b 6abc 055b 213d 31e3 b23c b478 1c3e
000000c0: a610 e83d b8f7 fc3d d386 233e 5660 25bc
000000d0: d002 283e 14f7 b33c 911d dc3d fbeb 0f3e
000000e0: 92a5 143e add6 b23d 844d ff3c f225 00bc
000000f0: 1888 d03d 85cf f63d a7d2 7c3e 97d8 db3d
00000100: a567 333c d8a6 6bbd fdb1 c1bd 506c 44bd
00000110: 0151 3f3e 5530 e8bc eb4a b73d 0aa5 ce3d
00000120: c273 a53d caf5 e03d 0195 283d e7d9 cf3d
00000130: 9b09 243d e0c5 c23c 7290 adbc f136 ba3c
00000140: 0ece 3dbd ea2c 45bd dae8 623c f6d2 0d3e
00000150: 363e 5e3c cf8e d83d 9bd0 e73c 79fc c9bd
00000160: 6723 b03d 7f6d 9e3d 2500 103e cc5a 793d
00000170: c1fc 023e 48e6 3f3d 2699 403e 58fe 36bd
00000180: 13db 1f3d e4ac 78bd 82ea a53d 4143 ff3d
00000190: 2855 213d cd3e 143e 2c80 e43c 74a9 7cbd
000001a0: 2619 1c3d e582 ae3d f81a 1abc dde3 273e
000001b0: dfaa 943d 06a2 053d b700 633d 601a 3fbd
000001c0: cbe1 d23d f2e0 b73b 0c55 093e 4591 6bbd
000001d0: b693 b93d 8b8b 753d 3229 7fbd 2a2a 8ebd
000001e0: 146f ae3d 953c 1b3d 6c5f 0c3b 839a 07bd
000001f0: bf5b 9e3d 8c38 1b3e f8f7 c43c a159 f8bc
00000200: 88f9 86bd 5e88 db3c 8dc0 4cbc 0bf9 123d
00000210: 973f 97bc 50d4 d23a 317d dcbc 8906 c13d
00000220: d61a a33d 2d54 e6bd 7b87 783d b604 3a3e
00000230: 404a 81bd cdf4 99bd 11ad 2f3c dc81 bc3c
00000240: 2802 95bd d419 e6bc 8fde ebbc 3d17 323d
00000250: d374 19bd 6a0b 113e a230 e8bb 1514 05bb
00000260: bea2 503d 5ae4 a13d 5383 bf3d d71d 04bd
00000270: 4a98 bcbb aac9 3cbd eb29 e3bd 35a7 1bbe
00000280: 2d5d 733d 908d f73d b64d b6bd 68a5 123d
00000290: 5519 eabd 4090 2fbe c245 453b 4559 1a3e
000002a0: d34f 33bd 8370 3a3d 0901 7a3d a0a7 953d
000002b0: e7c3 6f3d 828c e6bd 0c31 0cbd 4c1c ed3d
000002c0: 52dc 733c 6494 693d f44e 81bd 00c6 98bd
000002d0: 841a 193e 6196 1ebd 765f 98bd 0644 003e
000002e0: b8ae 743d 3a41 b13c 5c85 af3b a565 d93c
000002f0: 055c 193e 94a5 2e3d 5ee4 2cbd a64a 25be
00000300: 895a 033e d753 7839 d200 143d 1b7e 033e
00000310: 5b85 ad3d c255 32bc d117 02ba 1d40 873d
00000320: dcd1 1e3e d2dd 383e 0f5d c6bd 7b06 0b3e
00000330: 3857 c63c e2ed ac3d 69aa b13c 2679 243d
00000340: 9fbe 353c 038c 0b3e ad33 16bd 847f 293e
00000350: f42e c3bc fccb 913d f5ca ae3d 2afb e83c
00000360: 3a66 b4bd b287 3bbd 3a7a 2fbd 2253 403d
00000370: f0a1 c13d 4610 353e 042a 483d 2214 84bb
00000380: 867d 0e3d c262 bbbc d26f 52bd 9940 8dbd
00000390: ce07 8abd 02db de3d 8f9b ff3c 1717 1d3e
000003a0: 9a13 3c3e d08f 4abd 5aa3 95bc 912b e03c
000003b0: 3729 b53d b4c6 173e 4468 073e 5684 b83d
000003c0: dc9d 4e3d c384 413e abd4 f33c 877b 13bd
000003d0: 01c0 aa3d 5029 e43d 3872 85bc 8c5d 85bd
000003e0: b4d5 b73c 27c5 c3bc 4c8b de3c c425 85bb
000003f0: 99d9 9abd d1c3 8a3e de4f e43d e055 a73d

hidden2tag.weight f4 [11, 64]
-0.16177222 -0.09254363 -0.072089516 0.1753167 0.09786537 0.098094076 0.08118041 -0.13287698
-0.13178793 -0.030414112 -0.015637582 -0.26019746 0.06941942 -0.055205762 -0.09994337 0.06417378
0.16819307 -0.12485 0.17230034 0.0528382 0.15142915 0.019237189 -0.13177964 0.18868278
-0.08214525 0.2023813 -0.08546377 -0.12123168 0.095330626 0.0534018 0.19783567 -0.15114182
0.12469241 0.09560571 0.042072352 -0.067116715 -0.13248566 0.13045852 0.09155769 0.09647717
0.053699903 0.18681623 0.14432514 -0.1353302 -0.0746242 -0.07051961 -0.12716062 -0.07394612
0.17001407 0.06413302 -0.06812663 0.09436262 -0.15138122 -0.11414708 -0.1035373 0.04481235
-0.07084689 -0.07896226 0.07391934 -0.17055745 0.16788676 0.0137748895 0.030977895 -0.09850507
0.10249376 0.11272766 0.05909885 0.0904849 -0.033105686 -0.05168682 0.030367706 0.045884743
0.04723778 0.13342662 -0.027350537 -0.346036 0.23823465 0.15947105 -0.024885738 -0.074336156
-0.15676513 0.10290364 -0.029756825 -0.057096977 -0.016881827 -0.058919534 -0.012722034 -0.011752158
-0.12394811 -0.19635691 -0.0809387 0.07232243 -0.14891109 -0.07770348 0.04073823 0.1371151
-0.13700333 -0.0067865434 0.039337687 0.14417866 0.09351968 0.10418839 0.07534756 -0.09315747
-0.18037349 0.08972081 -0.11407875 -0.04938516 0.1408479 0.1591636 -0.043078993 -0.00983565
-0.09012226 -0.14589341 0.05152416 -0.13763867 -0.1314146 0.05080448 -0.0564596 -0.0019581597
0.055969615 -0.043059845 -0.078315586 0.14254215 -0.07785058 0.0061554937 -0.28465232 0.22352023
0.0050990884 0.16880997 -0.030713588 -0.15542449 -0.14553554 0.019911218 -0.0929222 0.0043465337
0.16486509 0.13628383 0.03682231 -0.34732038 0.18909901 -0.06837938 0.05646204 -0.1375721
-0.09589 -0.060149986 -0.15973946 -0.011235754 -0.10075937 -0.018389855 -0.038687874 0.0018087507
-0.09856075 -0.033496544 0.0024477981 0.15292881 -0.16487457 0.06346425 -0.11489079 -0.048049618
4.1608175e-05 0.06690814 -0.054899275 0.17103784 0.045945413 0.18280989 -0.0076194336 -0.16186313
-0.19542854 0.008870061 -0.052137468 0.100193396 -0.046264164 0.071961686 -0.008569501 0.00708497
-0.07383742 0.031601567 -0.009810108 -0.049978033 -0.15510668 -0.14484411 0.027539665 0.027028399
0.035358917 0.18779136 -0.13527143 0.10727878 -0.17868114 0.039757185 -0.2936569 0.08746678
0.07696691 -0.02879044 0.02862812 0.06709546 -0.10039135 -0.017829584 -0.042028103 0.09790136
-0.012868652 0.10212982 -0.035386298 -0.32743123 0.14332364 0.1388515 0.08363061 -0.07246872
-0.1406734 -0.0106990775 -0.028740328 -0.09617648 0.048606914 -0.16863543 0.09860098 -0.114038885
-0.07009367 -0.19497652 0.07782347 0.11449299 0.022846423 0.025738321 0.089203596 0.06629897
-0.06595625 -0.14238608 0.10926497 0.17347501 0.14984906 0.16684362 -0.13688526 -0.1146129
-0.0088901 0.07806233 0.0009735083 0.13570048 0.13326973 0.14807008 0.050408233 0.052081697
-0.13475744 -0.009507814 -0.12991576 -0.19139448 -0.20716386 -0.0108808465 0.1334067 -0.09304999
-0.087663844 0.11202312 -0.023033135 0.12838843 -0.019257275 -0.06273716 -0.24818884 0.24413545
00000000: 9ea7 25be 8487 bdbd aba3 93bd 3986 333e
00000010: a46d c83d 8ce5 c83d ea41 a63d e710 08be
00000020: 6af3 06be 0427 f9bc 631a 80bc 9a38 85be
00000030: c52b 8e3d 701f 62bd 1caf ccbd 8b6d 833d
00000040: ce3a 2c3e 5bb1 ffbd 806f 303e de6c 583d
00000050: 3e10 1b3e 4f97 9d3c 3ef1 06be 0f36 413e
00000060: c53b a8bd 0b3d 4f3e a107 afbd 5148 f8bd
00000070: b43c c33d d9bb 5a3d 6f95 4a3e ecc4 1abe
00000080: bc5e ff3d edcc c33d 0f54 2c3d 7d74 89bd
00000090: 52aa 07be eb96 053e 9982 bb3d d395 c53d
000000a0: 6ef4 5b3d c14c 3f3e f8c9 133e 0094 0abe
000000b0: 93d4 98bd 966c 90bd 6536 02be 1071 97bd
000000c0: 2b18 2e3e 2c58 833d f985 8bbd 3041 c13d
000000d0: ae03 1bbe f2c5 e9bd 5d0b d4bd 288d 373d
000000e0: 2d18 91bd f7b6 a1bd 0663 973d 9da6 2ebe
000000f0: 82ea 2b3e 13b0 613c 5bc5 fd3c 07bd c9bd
00000100: 40e8 d13d c2dd e63d a311 723d 2650 b93d
00000110: d499 07bd 8fb5 53bd b2c5 f83c a4f1 3b3d
00000120: 677c 413d fda0 083e 3c0e e0bc a12b b1be
00000130: c9f3 733e 614c 233e 2ddd cbbc 8e3d 98bd
00000140: 0a87 20be 25bf d23d 96c4 f3bc 85de 69bd
00000150: c24b 8abc 9c55 71bd 1470 50bc 208c 40bc
00000160: 82d8 fdbd c911 49be 30c3 a5bd c81d 943d
00000170: 267c 18be 0123 9fbd 21dd 263d e767 0c3e
00000180: 9a4a 0cbe a761 debb 8e20 213d 92a3 133e
00000190: 3f87 bf3d b960 d53d d24f 9a3d 58c9 bebd
000001a0: d4b3 38be 8bbf b73d 1fa2 e9bd 1848 4abd
000001b0: 6f3a 103e c8fb 223e 9973 30bd b525 21bc
000001c0: 0592 b8bd 1565 15be ff0a 533d 27f1 0cbe
000001d0: 8d91 06be 5c18 503d 2e42 67bd 7854 00bb
000001e0: 6540 653d 855f 30bd ec63 a0bd 92f6 113e
000001f0: 2070 9fbd 06b4 c93b f3bd 91be 7de2 643e
00000200: 4116 a73b 85dc 2c3e 109b fbbc 9927 1fbe
00000210: 4507 15be da1c a33c ff4d bebd 5e6d 8e3b
00000220: 65d2 283e fd8d 0b3e fed2 163d fad3 b1be
00000230: 2ca3 413e 7d0a 8cbd bd44 673d b3df 0cbe
00000240: fa61 c4bd d55f 76bd be92 23be 2b16 38bc
00000250: ee5a cebd 52a6 96bc 2d77 1ebd 9a13 ed3a
00000260: 38da c9bd ac33 09bd 3d6b 203b 5f99 1c3e
00000270: e1d4 28be 8bf9 813d dd4b ebbd adcf 44bd
00000280: 7084 2e38 2307 893d 10de 60bd 8b24 2f3e
00000290: 4231 3c3d 8432 3b3e 71ac f9bb 73bf 25be
000002a0: 6b1e 48be bb53 113c 198e 55bd 3232 cd3d
000002b0: 7e7f 3dbd a660 933d 1867 0cbc 0929 e83b
000002c0: 1338 97bd a570 013d 93ba 20bc c4b5 4cbd
000002d0: 49d4 1ebe 0452 14be dd9a e13c a96a dd3c
000002e0: 83d4 103d 614c 403e 9884 0abe fab4 db3d
000002f0: 30f8 36be 6ed8 223d 325a 96be c821 b33d
00000300: d4a0 9d3d eed9 ebbc 8585 ea3c 5869 893d
00000310: fb99 cdbd 590f 92bc a925 2cbd 8280 c83d
00000320: 0ad7 52bc 7029 d13d 39f1 10bd 11a5 a7be
00000330: 6fc3 123e 162f 0e3e 8646 ab3d 7b6a 94bd
00000340: b00c 10be 2f4b 2fbc d670 ebbc 2df8 c4bd
00000350: 0b18 473d c4ae 2cbe 50ef c93d 388d e9bd
00000360: 458d 8fbd eda7 47be e961 9f3d 4d7b ea3d
00000370: 6c28 bb3c 2cd9 d23c 60b0 b63d c1c7 873d
00000380: 1214 87bd a8cd 11be 50c6 df3d 6fa3 313e
00000390: 0872 193e 0ed9 2a3e a62b 0cbe 2bba eabd
000003a0: c8a7 11bc 25df 9f3d 0933 7f3a 11f5 0a3e
000003b0: dc77 083e af9f 173e dd78 4e3d 9e53 553d
000003c0: dbfd 09be aac6 1bbc a308 05be eafc 43be
000003d0: c322 54be 9445 32bc c49b 083e fe90 bebd
000003e0: 1a89 b3bd 616c e53d fcaf bcbc 4278 033e
000003f0: 6fc1 9dbc 577c 80bd 3725 7ebe a5fe 793e

hidden2tag.bias f4 [11]
0.09048302 -0.072901025 -0.13720584 -0.13000166 -0.062692404 0.1130722 0.1516046 -0.10793003
-0.02550629 -0.11882876 0.010004882
00000000: 294f b93d 224d 95bd b07f 0cbe 281f 05be
00000010: e064 80bd 6692 e73d 3c3e 1b3e 6b0a ddbd
00000020: 91f2 d0bc 7e5c f3bd 84eb 233c
